Model: "sequential"
_________________________________________________________________
Layer (type)                 Output Shape              Param #   
=================================================================
embedding (Embedding)        (None, 1342, 50)          2228050   
_________________________________________________________________
conv1d (Conv1D)              (None, 1340, 128)         19328     
_________________________________________________________________
global_max_pooling1d (Global (None, 128)               0         
_________________________________________________________________
dense (Dense)                (None, 64)                8256      
_________________________________________________________________
dropout (Dropout)            (None, 64)                0         
_________________________________________________________________
dense_1 (Dense)              (None, 1)                 65        
=================================================================
Total params: 2,255,699
Trainable params: 2,255,699
Non-trainable params: 0
_________________________________________________________________
