Model: "sequential_3"
_________________________________________________________________
Layer (type)                 Output Shape              Param #   
=================================================================
embedding_3 (Embedding)      (None, 5000, 50)          2070850   
_________________________________________________________________
conv1d_3 (Conv1D)            (None, 4998, 128)         19328     
_________________________________________________________________
global_max_pooling1d_3 (Glob (None, 128)               0         
_________________________________________________________________
dense_6 (Dense)              (None, 32)                4128      
_________________________________________________________________
dropout_3 (Dropout)          (None, 32)                0         
_________________________________________________________________
dense_7 (Dense)              (None, 1)                 33        
=================================================================
Total params: 2,094,339
Trainable params: 2,094,339
Non-trainable params: 0
_________________________________________________________________
