Model: "sequential_7"
_________________________________________________________________
Layer (type)                 Output Shape              Param #   
=================================================================
embedding_7 (Embedding)      (None, 5000, 50)          2070850   
_________________________________________________________________
conv1d_7 (Conv1D)            (None, 4998, 128)         19328     
_________________________________________________________________
global_max_pooling1d_7 (Glob (None, 128)               0         
_________________________________________________________________
dense_14 (Dense)             (None, 64)                8256      
_________________________________________________________________
dropout_7 (Dropout)          (None, 64)                0         
_________________________________________________________________
dense_15 (Dense)             (None, 1)                 65        
=================================================================
Total params: 2,098,499
Trainable params: 2,098,499
Non-trainable params: 0
_________________________________________________________________
