Model: "sequential"
_________________________________________________________________
Layer (type)                 Output Shape              Param #   
=================================================================
embedding (Embedding)        (None, 5000, 50)          2070850   
_________________________________________________________________
conv1d (Conv1D)              (None, 4998, 128)         19328     
_________________________________________________________________
global_max_pooling1d (Global (None, 128)               0         
_________________________________________________________________
dense (Dense)                (None, 32)                4128      
_________________________________________________________________
dropout (Dropout)            (None, 32)                0         
_________________________________________________________________
dense_1 (Dense)              (None, 1)                 33        
=================================================================
Total params: 2,094,339
Trainable params: 2,094,339
Non-trainable params: 0
_________________________________________________________________
