Model: "sequential_2"
_________________________________________________________________
Layer (type)                 Output Shape              Param #   
=================================================================
embedding_2 (Embedding)      (None, 5000, 50)          2070850   
_________________________________________________________________
conv1d_2 (Conv1D)            (None, 4998, 128)         19328     
_________________________________________________________________
global_max_pooling1d_2 (Glob (None, 128)               0         
_________________________________________________________________
dense_4 (Dense)              (None, 32)                4128      
_________________________________________________________________
dropout_2 (Dropout)          (None, 32)                0         
_________________________________________________________________
dense_5 (Dense)              (None, 1)                 33        
=================================================================
Total params: 2,094,339
Trainable params: 2,094,339
Non-trainable params: 0
_________________________________________________________________
